weights/STSIM_01272022_global_mode0_SF_json/epoch_0298.pt (torch, 7737 bytes, 2 tensors)

linear.weight f8 [10, 82]
00000000: 126b 9b0b 8e2a b53f cc8f 4551 48c1 e5bf
00000010: 72b0 72c4 306b a8bf 0763 3b37 ba44 be3f
00000020: 2c87 0020 3f0f b43f f160 195c 0f20 d7bf
00000030: 5496 dcad c6d0 c53f 316f e762 8a3a ce3f
00000040: 20a1 0320 7876 a2bf 94fb 4a31 afc0 e4bf
00000050: 6b02 55eb a329 ab3f 8567 5bd1 a696 99bf
00000060: f93c ffdf a8ca b33f fc3a dc0f cb3d e8bf
00000070: e0d5 956f 2aba cd3f 5c45 756f ab0d 83bf
00000080: cb43 f9bf 6998 a03f 06c9 6e70 9ee1 ddbf
00000090: 3198 e6de a615 a03f f70f 361a fbe3 c6bf
000000a0: 3efe 00e0 b448 b5bf 997f 0799 ed2a cb3f
000000b0: 53f4 5d8b edad b83f 39bc 7615 6a34 863f
000000c0: 06d8 0b40 8bf4 b4bf a695 3356 1b63 83bf
000000d0: 60fd 050c 4b17 c43f b4d3 aaac 60c2 b4bf
000000e0: 6256 f55f cde6 a5bf 2351 bcfb 27a7 d13f
000000f0: 0a5c 12db f93d c23f 59b7 ed42 c906 a83f
00000100: bdc7 f91f 3020 b93f 338d fc26 a65d ce3f
00000110: 707c 99f5 5608 d03f 65ce 2912 fa1d b2bf
00000120: 1acd 2c20 6923 953f 1df2 00b8 b643 d63f
00000130: a30f ff52 8770 c1bf 36e7 2e48 39d5 b6bf
00000140: 908b f3bf 643e a3bf a628 ca1e 9624 e43f
00000150: faff 5022 1e44 953f b0d8 3adb 8087 a13f
00000160: 1e53 e63f bfa1 a1bf 3b7f dd6d 9bde e13f
00000170: 5446 683c 654a 74bf 1968 00cb a9d3 a33f
00000180: 6b9c 1320 8c0d b0bf 9580 c67b d41a cb3f
00000190: f271 e929 5fe1 babf 321b 8215 c4d3 c4bf
000001a0: 6a76 6368 7752 b13f c13e 1b5f 1eea 9dbf
000001b0: 81d5 defa 6c6d acbf f0d2 24b5 9c82 be3f
000001c0: 6ab6 7e8b 74ac b73f 28fd 9f6a 2932 c13f
000001d0: 8ecc c9e5 7472 d03f 6a5d 9e1c 23d7 bc3f
000001e0: d260 9a99 2aea afbf 3f5b b802 ebc1 90bf
000001f0: 98ab e5cb 5878 bfbf 0d2b c07d 879e bbbf
00000200: e471 0df7 3a7f b33f 1385 643e f1fe b0bf
00000210: 050e 3c68 22ce abbf 6b1a 5328 1d13 71bf
00000220: 3fcb d1e6 52de b83f 2673 d5aa 97d4 80bf
00000230: 8176 1d98 a66e bdbf 9ecd 90f0 f953 80bf
00000240: c70f a5b8 2507 b33f 3e1a 1e6d 9e5c aebf
00000250: cbd9 f5b7 3035 a23f 3b88 2003 b4b2 633f
00000260: 2260 15c5 b97c b3bf c48f 87be e97e a93f
00000270: 3dd6 f44a 3728 a4bf 2f92 ace8 1d03 a8bf
00000280: 20c4 8155 bfd9 8c3f 5b53 97e5 edd2 8a3f
00000290: f198 8aa4 80db a0bf 2c9e 9614 46e9 d03f
000002a0: e366 2f58 8e02 c03f 9170 688e 39f8 85bf
000002b0: 9152 ffdf 077b 9f3f 0f3a e877 ba03 cf3f
000002c0: be25 3627 ac89 c4bf 02f7 d772 4a2c d4bf
000002d0: b911 ff9f 4fce b2bf a405 1fe0 895e ea3f
000002e0: 4bf1 50a3 3a81 c1bf 9a67 532e ad34 b4bf
000002f0: a4eb ffbf 44f0 a4bf 3334 26ed 9148 e33f
00000300: 395e 6892 4acd dabf 2d43 c3c8 c46a 8e3f
00000310: 976a fcdf e20b b5bf d2ae 4dde c06c c03f
00000320: 02db 5ce0 99b2 903f 3af1 cc33 4e13 a43f
00000330: e98b fe3f 96eb 80bf ea4c 037f 5e2a d2bf
00000340: 9af6 4115 e5dd 9fbf 0bde c334 1afd c33f
00000350: 0135 f51f 173b bbbf 90c1 fe90 459b 9f3f
00000360: 2c4c dff6 03ab b5bf 0d45 4a0d e14a b6bf
00000370: e67d 0480 c71c afbf cf65 e7c0 d5f1 c1bf
00000380: 61f5 1a71 44bc a83f 1a9c db5c c465 ae3f
00000390: 5390 f5ff 9870 a2bf 8cb6 67a5 7eb0 d3bf
000003a0: 9233 d9b5 56b4 c5bf 182e 6c44 4411 ad3f
000003b0: a612 0d60 e46f bb3f 89ac b2d4 d633 c0bf
000003c0: c3e5 3035 a5fd 96bf c603 3206 363a c73f
000003d0: 7d96 f43f ae7b ba3f 1504 62ff 7d28 d1bf
000003e0: d602 43d2 52e4 af3f 02fd add1 5322 b4bf
000003f0: b977 12a0 af00 9bbf 9996 ecb3 abb6 c3bf
00000400: 9e9f 998e 95c1 bebf dae2 3a40 a3ff 7abf
00000410: ad17 f55f bf93 b7bf 9fdd 56b0 fd99 bcbf
00000420: 9a44 fd5c 36f6 bbbf 3f8a 1c17 0f3f b3bf
00000430: e296 395a 4be5 c63f 1ae2 087f f131 923f
00000440: 7c8a ff02 b843 72bf e076 2f24 f5d5 b4bf
00000450: af85 797d 0bd1 74bf 15a1 6d53 7e50 e23f
00000460: 4689 e2f7 81fe ae3f c7ae dc7b 9595 5a3f
00000470: ee31 ff7a 246d 70bf f0a0 c2b4 d0f0 a53f
00000480: 511c 240d 18da c23f c0bf a0e3 f42e ca3f
00000490: 8705 3c30 89ed ba3f 5528 d810 e60b 99bf
000004a0: 0017 1030 d504 b23f a15c b837 8381 b4bf
000004b0: 7a4a 59e4 8ec5 b53f 3fd3 61b9 bb2d a5bf
000004c0: 767d 813d 44b6 b33f 237a d47a 23a0 8fbf
000004d0: 4f1f 948b 0dca 7bbf 3d13 fedd 1452 85bf
000004e0: fb1f da43 863d c93f aae0 a0c9 3fa0 c5bf
000004f0: c1b3 3bd1 ab54 8ebf aef3 95d0 bfbb b43f
00000500: 868f 4726 a96e c43f 544d 500f 3c8c 7ebf
00000510: 1efa d0c0 710a 973f 5744 0b22 3ab8 a33f
00000520: 810e 1139 7e69 b1bf 56a2 ea36 5438 cf3f
00000530: 650d e895 7229 b7bf 5342 dc28 ff02 d13f
00000540: 6751 00e0 4907 9c3f 19cd b48b aba8 d33f
00000550: c7ea 1aa1 f763 ccbf dae8 6755 505b c5bf
00000560: 5e2b 0100 b304 b83f c0cf d02d 2fa5 e23f
00000570: 3352 8af6 d59f d3bf bc34 e784 26d9 b53f
00000580: c3f6 0020 6765 a93f d7c1 3759 e0d3 df3f
00000590: cb23 2542 05fa d4bf 5e5d 4578 e87d b23f
000005a0: a993 f65f 89a5 91bf 4cc8 3742 850a d53f
000005b0: efb7 cf89 7d3e c1bf 9d41 2c96 4ab9 ba3f
000005c0: ff05 0bc0 bb26 913f 693d dcfb 3a47 dabf
000005d0: 45f9 594a 3e66 bdbf 6b06 717b e8f3 d0bf
000005e0: a31b f77f 0ea5 b1bf 8a78 8140 a5ed d9bf
000005f0: 20c4 38c5 3985 ca3f 640f dadf 82dc bf3f
00000600: 1770 fb1f b039 9d3f bf88 09f9 b02e debf
00000610: 5500 3586 d503 783f 380f 0bce ad92 c53f
00000620: 58e0 a79f f62e 7ebf b363 bae1 7b36 dbbf
00000630: 0908 16f2 2c1e cfbf 5fa6 54b0 ed60 50bf
00000640: bbf5 f6ff 022f babf 44b5 36bc bc88 dbbf
00000650: f71b 0c8e 2148 9f3f 88b2 9fd2 27ca 9b3f
00000660: f140 fb5f 45a2 b83f a334 c5e1 5694 d5bf
00000670: 4273 4301 5409 b93f 92d2 16bb 8482 883f
00000680: e8ba 0540 ca16 b2bf 13a8 f9db c628 d5bf
00000690: c5c3 287b 0737 d0bf cc3c 7887 cde3 c8bf
000006a0: 40dc 1380 be51 b93f f0e2 14fd 4d7f c9bf
000006b0: c2a9 8d7a f963 a63f b36b 8c1c b265 c2bf
000006c0: be94 ac19 57e5 a43f 19cc e507 274c cb3f
000006d0: 6d8c 29bc 2f22 b8bf 3f75 1c73 79cf 8abf
000006e0: e9c4 d179 f145 963f 3896 988b eee3 cc3f
000006f0: 1f2c d3ee acd5 c03f fa4e b250 1668 083f
00000700: f560 d495 942d bc3f 51d5 0f48 aa36 d13f
00000710: d18c 3063 7431 c13f 7627 930b f13d b7bf
00000720: bb11 31ff 5f2e aabf 7ba3 2827 4799 91bf
00000730: a2fe 9c02 1eef ac3f 025f 9f8e 810e b7bf
00000740: c00d 0139 947c 823f 715b ca0b f1e1 c1bf
00000750: ccf3 a730 63a0 cbbf 3440 245c 3f49 bc3f
00000760: 7342 71b8 365a a33f 4d9a b630 e3b0 a8bf
00000770: f037 e781 bce2 be3f a413 4ac2 6aa1 b4bf
00000780: 6dc8 0f2f 9a04 91bf 9a90 c34e 79a9 94bf
00000790: 2f61 5b72 ae41 a1bf 99cb 655d 8193 c73f
000007a0: 8057 a556 1bb1 b13f ffa7 e29c 899b a7bf
000007b0: 404b 63c9 02c3 a23f 26c3 6624 49a1 e23f
000007c0: 5ad4 1147 9f20 a53f 3a44 b8a7 aa01 b8bf
000007d0: c032 f59f 7062 823f fa27 8792 70c9 e43f
000007e0: 6786 a5e1 da03 a5bf e2be d736 e445 ddbf
000007f0: 5d3c 0900 c761 993f ad9a 5aaf 5d15 e43f
0.08268058570267225 -0.6798440539682757 -0.047692798595876065 0.11823619697987563 0.07835764437961917 -0.3613317870526905 0.17043384064997957 0.23616151646899078
-0.03606009856031478 -0.648521038317869 0.053052065350588894 -0.024988752868786008 0.07731109112431857 -0.7575431165476796 0.23224382828236312 -0.009303416575365979
0.03241281956127969 -0.4668956850029108 0.03141519041973629 -0.17883242397158458 -0.083140663803527 0.21224756214269005 0.09640392925753476 0.010842160015128598
-0.08185644448880688 -0.00946637493911846 0.15696085059242204 -0.08109096732626037 -0.0427765063892991 0.2758274038653942 0.14251635739194085 0.04692677442549948
0.09814739971787297 0.23723294166220796 0.25050901398021264 -0.07076991027298048 0.020642893399053987 0.34788291901694085 -0.13624660065226832 -0.08919103634152922
-0.03758540003925426 0.6294661141739837 0.020767660946376033 0.034236933480700116 -0.03443715720201211 0.5584237237744455 -0.004953761532776452 0.038724237471072516
-0.06270671637649776 0.21175628703804664 -0.10500139973868963 -0.16271258402067584 0.06766458796070088 -0.029213404230914678 -0.05552235185988775 0.11918048307854767
0.09247520833624781 0.13434331613823614 0.256985878374686 0.1126577324742947 -0.0623334228996001 -0.0163647385034793 -0.1229300973697448 -0.10788771457752606
0.07616013080173151 -0.06639011166818802 -0.054307055686901896 -0.004168619057230853 0.09714239249460109 -0.008217987919743996 -0.11496964658496191 -0.007972672132473598
0.0743278098862553 -0.05930037576677137 0.03556205983743473 0.00240454825053951 -0.07612191259011117 0.04979639483261125 -0.039369323635054056 -0.046898779537773876
0.014087195202792613 0.013097628182473 -0.03292467125474897 0.2642378998811832 0.12507800393978305 -0.01072735753864887 0.030742762610162237 0.2423012814983427
-0.16045143046021154 -0.31520329680630266 -0.07346055656586871 0.8240403535239023 -0.13675625776694242 -0.07892877942086188 -0.04089560359712799 0.6026086456128098
-0.4187799863588882 0.014852082611839979 -0.08221261948021162 0.1283188901392039 0.01630630905057285 0.03920978910761837 -0.008261846378280384 -0.2838360061989095
-0.03111989919897571 0.1561615712778209 -0.1063703969022818 0.030865752196122254 -0.0846407392230481 -0.08708006453004576 -0.060766443612233975 -0.14019271773467643
0.04831136589698804 0.05937017091292081 -0.03601530193807947 -0.3076473822864976 -0.1695660007411815 0.05677235923039009 0.10717608780857776 -0.12658200631753783
-0.022451955195924144 0.18146395971782975 0.10344971715366032 -0.26809644641622415 0.062288845221251485 -0.07864879483348733 -0.02636980452063373 -0.15401216779098517
-0.1201413605828052 -0.006591451357672107 -0.09209819882116106 -0.11172471575888786 -0.10922565241095797 -0.07518095316167094 0.17887250810161165 0.017768643740256086
-0.004459112926243788 -0.08138973363335422 -0.00508217323621933 0.5723258618791386 0.06053548956812675 0.001622577648457234 -0.004010336400778842 0.04285289961382144
0.14728069917348077 0.20455800165791338 0.10518701007460694 -0.02445945241746757 0.07038624213609168 -0.08010120497088959 0.08504574847146698 -0.04136454236951303
0.07699991704565953 -0.015442158876394057 -0.006784489546823937 -0.010410464310334095 0.19719007790649798 -0.1689529165757951 -0.01480993492392624 0.08098982660699391
0.15962709778898104 -0.007457956894558155 0.022500779527257923 0.038514916091693045 -0.06801594632366383 0.24390652352782877 -0.09047619018388316 0.26580790510437174
0.02737155370421487 0.30716980593861504 -0.22180075994932322 -0.1668491761227589 0.09382170438872836 0.5826640982472711 -0.3066306026096612 0.08534470314698955
0.04960176721259082 0.49730690682102136 -0.3277600427577993 0.07223370491316447 -0.01723303459370454 0.32876712290374566 -0.13471955517837794 0.1043898216851233
0.01674931869161433 -0.41059755893453215 -0.11484135928364932 -0.26488697104296105 -0.06892481445457448 -0.40512973117245876 0.20719072465865995 0.12445848431712886
0.02854037471011858 -0.47159981079142804 0.005863031462752207 0.1685387855596845 -0.007369006513265296 -0.42520043414838965 -0.24310838528259662 -0.0009996720485311512
-0.10227984189164989 -0.4302207792305419 0.03054859570968557 0.027138349752862584 0.09622605889603954 -0.33717891738781186 0.0977985861858999 0.011967694243915337
-0.07066024840399232 -0.33061381799655115 -0.2533587172247816 -0.1944519912217174 0.0989035666169551 -0.19919752938746838 0.043731495103958476 -0.14372850793810485
0.04081222713856779 0.21326148877742027 -0.09427164405637863 -0.013091038537420217 0.021751187381998802 0.22570592704976078 0.13152085934993438 4.6551877027982026e-05
0.1100705018801625 0.26896149670877373 0.1343217357944924 -0.09078890354717636 -0.05113506307728551 -0.01718627144342431 0.05651181966686393 -0.09006509525294962
0.009026678075435224 -0.1397076900072665 -0.21583213687691083 0.11049266814757247 0.03779765130514514 -0.048224544235655566 0.12064722224678781 -0.08058802836792595
-0.016619118807235034 -0.02017774146305893 -0.03370423456152804 0.18418900547439135 0.06910868516328428 -0.04610853233437239 0.03664406498287187 0.5821881972279683
0.04126451246785541 -0.09377543062898122 0.008976821786427336 0.649589811503801 -0.04104503635859374 -0.45739083629358224 0.024787053467943177 0.6276081490403463

linear.bias f8 [10]
00000000: 5e81 c2a6 f786 79bf 368e ef13 3db7 93bf
00000010: e37c 1046 f716 7abf de9f 65b4 a61d 84bf
00000020: 7d90 a165 e68f b0bf b9cc b033 133d 76bf
00000030: 69c0 a438 ee94 61bf 4f9f f0f0 56d8 893f
00000040: dcf2 1b63 96ba 90bf 5cc8 9b69 16c6 ad3f
-0.006232230556776434 -0.019253687230856374 -0.006369558251235949 -0.0098221801569735 -0.06469573956707282 -0.005429339416014028 -0.002146210933595728 0.012619666316893733
-0.01633677463449855 0.05815191306273057
