weights/STSIM_01272022_global_SCF_json/epoch_0285.pt (torch, 7737 bytes, 2 tensors)

linear.weight f8 [10, 82]
00000000: 0932 44fc 7cdb f6bf 194a bf57 f142 ffbf
00000010: dada a7a9 156c e63f b307 4a81 ee50 bb3f
00000020: 81c1 52a9 5602 00c0 6f25 b77c ec19 d3bf
00000030: 42da 6860 04c5 ecbf b234 cdae 9517 d23f
00000040: 6ef4 d112 5647 e4bf 59e7 ab3d d041 0040
00000050: 9529 bb9a 0021 c5bf 9900 c020 67e2 e0bf
00000060: 0ef7 9132 9253 d0bf b079 73e8 dbf0 ddbf
00000070: 3244 702a aece d7bf 2ad6 c50d 7c33 b33f
00000080: 34a2 2620 2dd3 cbbf f22c 4514 014b 0340
00000090: 0193 6425 cf02 d3bf 3020 6734 7648 d5bf
000000a0: 8cf1 4831 6764 e9bf 94e9 f815 a256 dbbf
000000b0: 49cf e2d5 a031 b83f 5fb6 411e c72a 29bf
000000c0: 4eef 1ca8 7f7b ebbf d9dd 5dcf 8f13 e23f
000000d0: 3a03 11d2 49d1 b83f af57 92ee e4d3 b93f
000000e0: 17f0 fbb9 b155 e2bf d79e 663a b9c2 a63f
000000f0: 8d6e fe8e 524b d7bf 2677 359c abb8 ba3f
00000100: 8353 162e 0e04 e3bf 6211 2909 ed89 e53f
00000110: b2bc c3bd 5d36 d4bf e8a9 35c7 4f33 c83f
00000120: f78e 652f 870f c7bf 9c6e 77ab 11f0 c8bf
00000130: e6f5 05f3 b09f b2bf d8c2 85b7 be7b c9bf
00000140: 1d4d 3b96 4827 cd3f 75d3 686c 4d61 cfbf
00000150: 9a90 98de 082c c7bf 9487 d03d 0927 8abf
00000160: 0a08 3887 f4ea d03f ff06 d362 494a c93f
00000170: ea40 9b1f 1f1c d23f 845a e7d4 720a a73f
00000180: ede1 23d6 9f79 cd3f c27b 7a4a 571f ccbf
00000190: ba37 d257 3c8d ccbf 2c4b f1bb c223 c3bf
000001a0: 7fdd 1bb8 9327 c9bf 4421 13d8 1e38 6bbf
000001b0: d247 9923 238f a33f 49a3 4bea 8b74 c03f
000001c0: 1ac1 a3d3 675b 883f 97c6 62ac 2f79 c83f
000001d0: c479 9086 8c68 b6bf ff37 a53c c45a b7bf
000001e0: 97a9 d76f 6809 cebf 1702 b6e0 43ae a4bf
000001f0: b0ba 9336 8168 b4bf e685 266b 074e 99bf
00000200: 4073 1883 a4e0 97bf 80eb 57d6 2cc3 db3f
00000210: fd0e 71ec 5762 d53f 2302 0ce7 44e9 c2bf
00000220: 07ae 861c 98e6 bdbf a900 5b97 1a47 a5bf
00000230: 6e7f 0f80 2267 b5bf a2e7 aad0 8779 bb3f
00000240: e081 6982 b017 ae3f 3164 c483 535a c3bf
00000250: abd7 b936 470f c33f d01c a703 da0a c03f
00000260: 67b0 eef2 9faa e6bf 6e98 2be1 b7fd b5bf
00000270: 4187 be45 6e9b b0bf cf1b b085 4254 d43f
00000280: 6113 29da 0fdd c1bf 3517 eba3 d38b 7b3f
00000290: f16a bb26 1855 c6bf c941 767a 76d7 f0bf
000002a0: 4aee cd90 9ba2 c6bf ed2e bede 4c1f d4bf
000002b0: fa3e ca04 e7c2 f3bf 5143 1fea ed0d c6bf
000002c0: 9be8 6ede 0e92 ddbf 3727 146c 30cf c43f
000002d0: cd0a f60b d9c0 debf 15cf 8148 f4e4 f33f
000002e0: 6f69 96ee 525b b8bf 2b3a 9f82 3c35 d4bf
000002f0: 16cb bf0e a84e b9bf f300 0067 bd79 e43f
00000300: 7472 b32d ec4e c8bf 6b23 fe7d f281 b0bf
00000310: e614 d2c3 4dc8 e43f d96d 12a9 842c ff3f
00000320: f108 5ec8 95b3 c2bf 3492 aec8 17db d2bf
00000330: d56c 780c 337e c7bf 22c3 7f25 bfaa d1bf
00000340: 011d d72c 444b d03f d349 22b0 b8ba b03f
00000350: c822 7fb9 7724 f3bf acf8 3f94 eee2 e33f
00000360: 747f 4d45 1812 a93f 0766 b49f 1824 cf3f
00000370: b072 d777 2797 cdbf 9325 df55 2a53 dfbf
00000380: 073f 6e66 f361 a6bf e151 3027 4186 b8bf
00000390: d140 2ea8 e6e3 d33f 530d 4c11 9c7b f53f
000003a0: a657 0ee4 1587 c7bf 8dcc fddb ae66 bbbf
000003b0: 39a8 08eb bc30 aabf 141a 38b7 a208 b2bf
000003c0: a69b b0d0 e4b8 a23f 76a6 62d4 2a7f b83f
000003d0: b702 8241 75b8 b73f 0da4 9fa5 dd04 c53f
000003e0: cd1c d65b 9bb4 ce3f fb12 b483 401a c33f
000003f0: b282 d253 c062 aabf 4387 2e89 b79f aabf
00000400: b4ec b80f c792 c0bf 5f68 ca5d 5cdc c1bf
00000410: fadf 8473 8759 a6bf d6e3 351c a686 ca3f
00000420: 6186 203e 1332 c03f d464 bf75 447d bbbf
00000430: da35 81ed 554b adbf c65a a3c0 509f 813f
00000440: 1605 7a2d 841a b3bf bdca fc27 1279 b1bf
00000450: a069 2b64 b911 cb3f c25d baab c3b2 b5bf
00000460: ea32 acca 12b7 b53f 04bd 4057 d5d6 9b3f
00000470: fb8e 1156 44d0 8cbf bdce 1839 fce1 a43f
00000480: d31b 5821 218b a93f 0121 56ac 0079 bd3f
00000490: f1c6 1cab 52df 80bf 6c79 435c 2a7b cfbf
000004a0: 8539 5972 f848 cfbf 8179 7bf5 e914 b0bf
000004b0: 2a9f df56 3227 95bf 9755 e005 7cbc 9bbf
000004c0: 24c7 be7a 5845 a23f 03b0 39bf 4c99 acbf
000004d0: 692f 559f 253c bb3f 1ab4 69c9 770a b83f
000004e0: 6807 e24e 211f 96bf 5355 e174 1c1f b2bf
000004f0: cd94 b36a 263d bbbf 288d 00db a242 a63f
00000500: 318e 3e83 1c43 c0bf d18f 10d6 6e99 c4bf
00000510: 3dea 2543 f5a1 c6bf c7bf bd09 68d8 b9bf
00000520: 9d82 3094 561f ec3f b620 36b7 385b f8bf
00000530: fcd7 97fe 8d13 da3f 50c8 a80a e129 dc3f
00000540: cef4 f010 a65f debf bf84 c0b3 a53d e13f
00000550: adb3 a747 f6ed dcbf 3aad 96f8 a5c1 d13f
00000560: a77b 7e9d 3117 e53f 8298 ee42 5546 0240
00000570: f87d 555d 4e09 913f c208 7d23 a2c8 c6bf
00000580: 9d5d 079e a9a5 bc3f 03db 01d3 21f1 fa3f
00000590: 1e23 a86f 68e2 cdbf 6629 f1d3 c4d0 cb3f
000005a0: ab55 75bd f981 f43f 6279 80c0 5a4e 0240
000005b0: 9b5e df70 8827 943f f529 4575 4d41 bdbf
000005c0: 3120 2e31 70e8 ebbf e176 378d 7a9e dfbf
000005d0: 3e08 18a1 9e36 c03f 4e98 b115 bdc9 c13f
000005e0: 034f 792d a3ac e1bf 1dc6 dbbb 7850 e53f
000005f0: 7c2f eb88 e400 863f 1994 01b5 4123 df3f
00000600: 8f38 cd80 f52a c3bf 28f2 53e1 61a0 ef3f
00000610: 116f 3f43 25f1 d7bf 2ca7 0ec4 a0dd cd3f
00000620: 7ac4 0a66 beb9 c0bf b8aa 2aa3 5dd6 f43f
00000630: af66 f25f 9a24 d5bf 37f5 839f f2eb d63f
00000640: 0736 8ab6 a23e a7bf c97a 91d4 603d bbbf
00000650: 0a9b 1a7f 36f9 743f 1102 bf51 9a66 c4bf
00000660: 3041 0da0 46c9 b13f 4360 2bed cffe a8bf
00000670: 6edb ad9b 0b17 933f 02a6 8fff 8483 9abf
00000680: bac0 62c8 9de4 9abf bfb4 a8c7 edd7 c83f
00000690: 822f dc9a a474 d03f 57ed 721a 8c10 a6bf
000006a0: 8c89 1895 1795 c6bf 3453 b912 485f c13f
000006b0: dc07 d9bd d763 bd3f 3944 dc39 cb56 d5bf
000006c0: ce34 cdcf e3f1 b1bf 2761 230e 6043 61bf
000006d0: 7792 0095 e21a a0bf d808 28bb 2b3d c5bf
000006e0: 4d56 c9a6 d2f8 b43f 807c 5850 5231 bf3f
000006f0: 8f58 0248 9400 a0bf 0105 fb68 1b97 a73f
00000700: 97f5 1fde c558 c9bf cbc0 409c 959f a83f
00000710: a026 565d 9a88 a9bf 703f 856f 5a57 a8bf
00000720: 3497 55aa 7bbe aa3f 7031 1d01 3bdf d33f
00000730: f854 4da8 0419 5dbf b32e 135f 6f50 b53f
00000740: d892 6a74 160e 9fbf 4287 a0c0 dbd0 b6bf
00000750: c76a fc3f 42c3 bb3f d07c c6df 460a b5bf
00000760: 0fe7 8305 144f a8bf cb69 2a70 160a b2bf
00000770: 8981 9139 ab74 b53f 99a0 a672 d020 ab3f
00000780: 30fe 85ab 73ec b3bf 2c29 c511 c62a 773f
00000790: f4dc c4d5 ca87 c2bf add4 bc1c d34c bfbf
000007a0: 1c74 89d6 f34a c8bf afef 02f4 b3f0 a23f
000007b0: c7c0 4c3e 503e d03f ac23 ff0f 2963 e6bf
000007c0: 3fc4 b3d4 8b1c e33f 7597 34b3 22db c03f
000007d0: 6d89 5903 2899 e5bf 00d0 7e94 5b6d ef3f
000007e0: 965a 5841 b872 ebbf c145 50cf b003 c13f
000007f0: 9f93 cce4 6702 de3f 0c44 4911 0f35 f83f
-1.428585992255764 -1.9538434436441376 0.7006939233386575 0.10670366913293954 -2.0011418560390557 -0.2984572618411993 -0.89904993848797 0.2826894957586986
-0.6337080352383404 2.0321354692540976 -0.16506965213040972 -0.5276370658539405 -0.25510077417844534 -0.4678258676557574 -0.37198976654423455 0.07500434242486934
-0.2173820883738401 2.4116231521235187 -0.2970464577831962 -0.3325477134462771 -0.7935062372776414 -0.4271626677106266 0.09450726720643589 -0.00019200974122972594
-0.8588255198915051 0.5648879099016383 0.09694348696303914 0.10088949989798722 -0.5729607231619437 0.044454372767459276 -0.36397232021565956 0.10438034595196352
-0.5942450428143363 0.6730866602816088 -0.31581824809741044 0.18906590678245938 -0.18016137899677862 -0.19482632515324816 -0.07274919446168546 -0.19908889733371526
0.22776133857278405 -0.24515693467551683 -0.18103133076613603 -0.012769767950945789 0.2643405266281894 0.19757954907804984 0.28296640478676116 0.04500159119532035
0.230274180946949 -0.21970645081179724 -0.22306017196791378 -0.14952882935411915 -0.19652029504480237 -0.0033226587698644023 0.038201425643492506 0.1285567182560732
0.011893092294912356 0.19119831006314733 -0.08753279004347464 -0.09122873764610516 -0.2346621080499289 -0.040392037563837295 -0.07971961576888975 -0.02471171943182595
-0.0233178811086987 0.43378754550911225 0.33412740793231405 -0.14774380952441488 -0.11679983803212944 -0.04155810449219761 -0.08360496164777739 0.10732315868781808
0.05877448646493 -0.15119403776114518 0.14890375301518807 0.1253311651073319 -0.708328222729972 -0.08590268370935103 -0.06487168505421172 0.3176428132578026
-0.13955877449384516 0.006725146026558983 -0.17447187319961402 -1.0526032241506178 -0.17683739252594172 -0.3144104171012561 -1.2350835978613177 -0.17230009013885675
-0.4620396778297022 0.1625729110458509 -0.48052049797130963 1.243397029143073 -0.09514349293605105 -0.31574929004719604 -0.09885645256126127 0.6398608218878777
-0.18990852576725425 -0.06448283744806609 0.6494511437055308 1.9483687023520047 -0.14610550197182406 -0.29462236974567024 -0.18353880032450456 -0.27604654943483997
0.2545938909428998 0.06534914302964205 -1.1964032407724279 0.6214516540055874 0.04896617742519896 0.24328906820373694 -0.2311753592647583 -0.48945101152329434
-0.043716055158368454 -0.09579856116062714 0.310784973372404 1.3426781345049974 -0.1838099826388177 -0.10703556891330575 -0.05115309113564632 -0.07044426892398575
0.036566877817953355 0.09569041905583639 0.09265835618317451 0.1642109926899881 0.2398866842670259 0.14923864775496284 -0.051534662468161754 -0.05199979352552344
-0.12947929637616584 -0.13953737811681585 -0.04365180287499011 0.20723415734735678 0.12652817281291376 -0.10738017916391424 -0.057215390436436045 0.008604651335571655
-0.07462335691709074 -0.0682536456704765 0.21147839919178768 -0.08475897734239538 0.08482472847044745 0.027186711740964334 -0.014069112660031182 0.04078663060172747
0.04988959819825536 0.115127603601767 -0.008238454672752723 -0.2459462118631096 -0.2444143827764941 -0.06281912081928988 -0.0206573358081236 -0.027086198671971564
0.03568531511645137 -0.05585708460134244 0.10638651981315451 0.09390972773844944 -0.021603126945144352 -0.07078721860428532 -0.10640182595269039 0.04347714351049553
-0.12704807670989873 -0.16093240215661678 -0.17681756762233816 -0.10095834958860826 0.8788254637075458 -1.5222708851525062 0.4074435220967414 0.44005609551380065
-0.47458793310563585 0.538775302007842 -0.4520240497357076 0.2774443557379588 0.6590812755638255 2.2843423108161582 0.016637062498714855 -0.17799784405548819
0.11190281017422028 1.6838701479406957 -0.23347192241660591 0.21730861996395417 1.2817323113170953 2.2882590331275177 0.019682056321328117 -0.11427768815079971
-0.87212380986694 -0.4940477732724116 0.1266668593016806 0.13896907386078045 -0.5523239029084553 0.6660731953726927 0.010743890217234535 0.4865268962515202
-0.14974850453512942 0.9883279229102913 -0.37409335677306027 0.23332604954821912 -0.1306684492351769 1.302335393304629 -0.3303590714436763 0.3581511075752419
-0.045399746687603985 -0.10640530767112034 0.005120480420066862 -0.15938118926534675 0.06947747619165479 -0.04881906290182816 0.018642598511600487 -0.025892332170689876
-0.026262727122855913 0.1940896248719692 0.2571193229966796 -0.04309499571669544 -0.17642493038244955 0.13572026170973006 0.11480472931819413 -0.3334224762957692
-0.07009719680100376 -0.002107322318902888 -0.031455116928815245 -0.16592928541655882 0.08192173549590472 0.12184633695186342 -0.03125441912668336 0.04607473045826716
-0.19802163453998098 0.04809253246674102 -0.04987032307969952 -0.04754145251592845 0.05223452047611801 0.3104999075774435 -0.0017759843332972296 0.08325859137692752
-0.030327177863585714 -0.08912442639168908 0.10844816267164524 -0.08218806231751619 -0.04747831885647546 -0.07046642530841678 0.08381147532919021 0.05298472785517667
-0.07782671868880509 0.005656026562358012 -0.14476905286731034 -0.12226600123979621 -0.18978736854015288 0.03699266770988118 0.25380331119505367 -0.6996045410570466
0.5972346453037359 0.13168748617425377 -0.6749458375382297 0.982099332838061 -0.857753875376903 0.1329251301072372 0.46889684051193997 1.512953822635839

linear.bias f8 [10]
00000000: 4b7c 64f9 bef2 b53f 08e1 558d 06f0 aa3f
00000010: 6d91 52f9 2efc b2bf 09ff c37a a78b b9bf
00000020: 46fd 81b2 6112 a53f adf9 6343 8829 bcbf
00000030: 5fd9 3f9d a045 97bf f819 191b 697f 94bf
00000040: 86f9 c413 2f0e b93f c611 e8df 2220 c03f
0.08573525990185364 0.052612499955047964 -0.07416051470733516 -0.09978720423896105 0.041155865707873704 -0.11000873227383208 -0.02272654495023951 -0.02001728275197398
0.09787267906810912 0.12598071988044363
