weights/test_000/epoch_0220.pt (torch, 1528 bytes, 1 tensors)

linear.W f8 [82, 1]
-1.2577365619420895e-07 1.3225508345512126e-07 8.881567975672122e-06 -4.133975266940395e-05 -0.0004197647696460353 1.3991241168961648e-06 -0.6803096353658349 0.0016463883897664363
3.6723889752748397e-07 -1.9814640843218003e-06 -0.8369014728039331 0.6662953750330478 -2.235131122165466 6.827391570365126e-07 1.3801377705128024e-05 -1.1681771630688078
4.794410534117665e-07 1.143346102713068e-06 1.594214544797282 0.3201141692135827 -1.6157929992759585 -7.524616241058431e-05 -4.119905366306076e-06 -1.6066946175726102e-05
-2.5329345790233546 3.268664508655874 2.073954237833978e-06 6.394249232183207e-05 0.24484937544983917 -4.327392501826421e-06 -1.8139435059778526e-07 0.7473435197887358
-1.2834205164709964 -3.2122042931845747 -1.0583114690390377e-05 -0.0004534473238828553 0.0016940386329558027 -1.7061057281067019e-06 0.008397354546689778 0.9010515635335291
-0.267888982512293 -2.4208198676435574e-06 -3.3800625140485924e-06 -2.7999688528132473e-06 0.4404034462170974 5.110249432862453e-05 1.6040748268524262e-05 3.503403882985986e-06
-0.7922817239203921 -1.0327382392449422e-05 4.034469972038027e-06 0.00015920012885434358 0.12833825763073803 -9.314145902980727e-07 -0.06198360636419015 -2.4244562772811554e-05
-3.402665928879704e-05 0.00015802695176417433 5.803878254010029e-06 -6.344491956826295e-06 0.0002275474628154897 0.00022220091262796951 3.9496800364420475e-06 -4.7255707075624275e-05
6.79422524404308e-06 -1.8571743324205458e-06 -9.710944890515388e-06 9.493737335785944e-06 6.940772712565487e-05 0.48778625470427606 4.0318082904237616e-05 3.747593125697935e-07
5.027287909724515e-06 1.258984302726119e-05 -2.0536181953096668e-05 0.2269179188265911 0.2210685462148491 3.2698920694694813e-06 5.916733956944027e-06 0.00014057594282659342
-0.484470175223756 -1.5128177583853602e-05
00000000: 74aa 95c7 8ce1 80be c37d 4804 40c0 813e
00000010: c867 6368 41a0 e23e 0fc2 fe15 87ac 05bf
00000020: 5912 28f5 7b82 3bbf 70fa 373c 3179 b73e
00000030: 2899 61b6 18c5 e5bf ef8c 9812 74f9 5a3f
00000040: fae2 83c0 1da5 983e bf65 7e66 299f c0be
00000050: 1959 f598 e5c7 eabf 9ec6 a7ad 4a52 e53f
00000060: 98c7 ff6c 8ce1 01c0 7d11 a748 afe8 a63e
00000070: 3007 84e8 8ef1 ec3e 8e08 7589 dab0 f2bf
00000080: 23b9 af06 5e16 a03e 3325 a255 a22e b33e
00000090: c063 4b1c e781 f93f 0c8c f023 c07c d43f
000000a0: 97ef 8fc2 49da f9bf 8257 103a afb9 13bf
000000b0: b2fd c1f6 b647 d1be 5dfb 4922 f0d8 f0be
000000c0: b080 5e34 7343 04c0 e02e f293 3926 0a40
000000d0: 5f8a 6566 c865 c13e 996f 44a7 1bc3 103f
000000e0: 1365 006e 3957 cf3f 6cd8 ea97 8026 d2be
000000f0: b430 e194 a958 88be 43d8 0bf5 3cea e73f
00000100: 3d22 94f3 e388 f4bf 6b63 1a2a 98b2 09c0
00000110: 661f 2035 c431 e6be 9d6f 316d 95b7 3dbf
00000120: e98b b521 50c1 5b3f 39b2 1516 ab9f bcbe
00000130: 0325 35d9 a132 813f 895b ac16 6ad5 ec3f
00000140: 4056 b6d4 1725 d1bf 11ce eecb ab4e c4be
00000150: d710 b604 a15a ccbe 0d6e d127 e37c c7be
00000160: 8914 a3ef 912f dc3f 540c c855 dcca 0a3f
00000170: abde d4d3 e7d1 f03e 628d 2fa7 8063 cd3e
00000180: 589c ae33 5f5a e9bf 18b2 cca0 78a8 e5be
00000190: e7d4 5aa9 faeb d03e 3738 a3b1 dedd 243f
000001a0: 14c1 ac55 636d c03f 2a67 3958 ca40 afbe
000001b0: c8d5 71b4 50bc afbf 0c65 ddaa 196c f9be
000001c0: 37d8 561c fbd6 01bf 30f4 ee2d 81b6 243f
000001d0: cf40 18e8 dd57 d83e d878 72ab 589c dabe
000001e0: 1e1e 79d2 39d3 2d3f a516 464e d31f 2d3f
000001f0: 9169 11c8 ef90 d03e 9574 44bb 8dc6 08bf
00000200: e15f 156a 3e7f dc3e 3238 f7c5 8028 bfbe
00000210: 59ae 5c1a 865d e4be 0f99 ef52 e9e8 e33e
00000220: dfee 20ac df31 123f 0e2a d9d6 e337 df3f
00000230: 9de8 b3c7 6623 053f 3759 1ce3 5026 993e
00000240: 98ad d360 0216 d53e fc73 9cd9 1e67 ea3e
00000250: 3094 8fad a388 f5be a148 1e78 a50b cd3f
00000260: 9d61 1560 f94b cc3f 02d6 0c2d 0a6e cb3e
00000270: 53f9 2e72 0bd1 d83e 4663 7227 f26c 223f
00000280: 8a4c 9e31 8f01 dfbf 24e0 22e5 e0b9 efbe
