weights/STSIM_01272022_global_VGG_json/epoch_0296.pt (torch, 472569 bytes, 2 tensors)

linear.weight f8 [10, 5892]
00000000: 7b16 6817 942e b3bf af89 3348 c546 d43f
00000010: 9936 2a1d 6d5d aebf 2194 afb1 0da9 b6bf
00000020: fa18 f0ff c5a5 72bf f364 d298 ee44 b43f
00000030: 4aed 585b cfd4 af3f 4539 95e3 6b2d 8dbf
00000040: b46a 5173 fc65 9dbf 696b 884d 485e a6bf
00000050: 4b00 1fd5 6340 7cbf 9778 c510 06dd a1bf
00000060: 68da 5005 28ff b0bf bdc9 750f 3a4f 9ebf
00000070: 2979 a935 cdfa 9abf 31d2 856a 3a89 8ebf
00000080: 4568 9a64 c1ff a2bf f570 abbb 405a 9fbf
00000090: 85d3 43a9 c3f6 9ebf 824d 6d2c b92c aabf
000000a0: 8aec 4b24 a899 ad3f db0f f89b 86e5 95bf
000000b0: 39d1 2bdf 4f2c 98bf 6d5e 8f6f 5c9c a1bf
000000c0: db8a 5253 1869 a23f 7dd3 4dbd fdc7 90bf
000000d0: 2436 7a7d 70ba b63f 04d5 c6ac 099d 70bf
000000e0: c60a 24eb a531 a7bf 2228 9ff0 0a1e aabf
000000f0: 7f1f 3f2d 72a0 9dbf d8f5 b49a 45a1 89bf
00000100: 0279 3929 2161 d53f 4f1b b1fa 81f7 b93f
00000110: 09ee 1262 acb3 aabf 78e0 6e23 df3a 7ebf
00000120: 2908 e0a6 b933 94bf 165f 121c 0c1f 5cbf
00000130: 03c1 dc40 4343 783f ee15 6ff0 89b9 91bf
00000140: 2921 c20c bb30 c23f 3192 68ce c32f b93f
00000150: 422a d26b b1ca 9fbf 8603 462c e0d8 a5bf
00000160: 71a4 ad56 f53d 88bf 3a77 d240 833e a73f
00000170: bb76 6b1a aea3 abbf 9b69 379e 3f04 90bf
00000180: 5f97 b42b 3f72 57bf 8678 4fbc 6e8b 533f
00000190: 8445 8df1 e9ab 94bf 4264 bd33 f783 a4bf
000001a0: 3375 9b0e 2530 983f 6726 28b3 0c53 c93f
000001b0: e36b 90cf 4b10 a1bf 3111 73d7 69b0 acbf
000001c0: 33cb a575 4afb 963f b741 6d80 8b5a b83f
000001d0: b5f5 40f9 6bc8 2a3f 905d 3ab3 bd7b a4bf
000001e0: 8f25 372e b8f2 76bf 7cc0 83cb 091f 9dbf
000001f0: d866 7db9 995d a6bf d2a8 2f48 3ebe 8cbf
00000200: 58ac a987 d6f0 893f 45dd ad32 e787 abbf
00000210: 1d30 9fa9 4e9f a3bf 209f c63f 29e7 a3bf
00000220: 7fe8 f3df 1ad9 a3bf 3afc 5857 3235 92bf
00000230: d943 0474 2ca2 acbf 93ae 5509 573a 99bf
00000240: f569 9638 dfe4 94bf 1755 a98e ae75 c13f
00000250: d82a 80ee 981e a5bf e7df d578 a5b1 90bf
00000260: aecf dc92 a7ee ab3f ac0e 40b3 2ea5 b73f
00000270: 18cf d608 7206 a3bf c645 c37c e2ee 83bf
00000280: 4a47 2651 fba1 ca3f ca62 146f 997f b83f
00000290: fc97 595d 1a93 a4bf efbe 0e95 8088 a3bf
000002a0: bf50 cf83 0e63 b03f c275 3f7e 133b af3f
000002b0: 4d20 6c00 fb15 b4bf d252 082c 4b0a a4bf
000002c0: c2c6 74a6 9bf2 94bf d81e b808 d543 70bf
000002d0: 07fa d8fc 5e6d 993f c595 f760 a6bc 94bf
000002e0: f9f2 be4a 8f67 5a3f 6e2e 31df 0435 ae3f
000002f0: 1fa8 068e 0f36 a9bf c19d 3ef5 3503 a6bf
00000300: ed54 bc04 cf65 cb3f 29b0 efc9 513a af3f
00000310: 6e62 efea ccba 88bf 584e a5aa 6988 aebf
00000320: af94 d0be 7c78 86bf c322 aaed 203d c53f
00000330: d8de 68c5 7b1b a1bf 5efa 17a9 b060 923f
00000340: dbdf 304a ce99 97bf 6bc9 83d0 f83b bc3f
00000350: e7de b4d9 b5d5 9bbf 20b6 c65e a456 89bf
00000360: e2d9 8ec9 10be b73f 54aa e74d e12b b73f
00000370: 6e05 8451 bc5b 94bf 5048 838e 9e4a a4bf
00000380: a9ee 2f17 5b56 a33f eed7 4a36 1035 b63f
00000390: f669 2b21 8f35 89bf d561 e4cb fbd7 a2bf
000003a0: 46f5 6f88 e047 ba3f 07a7 5719 02df a93f
000003b0: ee86 5dae df50 993f 0450 0592 cca8 8cbf
000003c0: 66d8 87b8 f333 c83f 95a3 5194 717b bd3f
000003d0: 792a 584a 1243 a1bf e442 13bd 577a a0bf
000003e0: 4ebe ae12 45d3 abbf c6ab 3a09 745f 82bf
000003f0: 2ea8 2a96 c392 aabf 3c16 8460 0169 a23f
00000400: 4a24 8af4 074e c23f 6d5b da3a f926 b73f
00000410: fbaf ef14 949d abbf 11f6 4300 0995 9fbf
00000420: b436 90f3 ba49 8b3f cdeb b208 fde8 a83f
00000430: 6d9f ddaf 1430 abbf 8a50 b74e 321c 90bf
00000440: 8c54 cd13 a1b6 913f ea95 7549 eec0 cd3f
00000450: 7b40 de1c a61f 9ebf b672 f560 8dfa a1bf
00000460: 24bb 0b2f ecd2 183f 52f0 207b 70b3 90bf
00000470: b79c 1155 9a88 92bf 7dd1 bf08 af22 a7bf
00000480: 21b2 c0a2 0b77 b03f daac b78a 6c4e 6dbf
00000490: 2a50 6446 98df 60bf 0dd3 f733 a9ec a0bf
000004a0: 0d09 e7ec 1034 9ebf 832e 5aeb 1ab8 8fbf
000004b0: 9594 7198 efcb 9ebf 59ed d263 2085 91bf
000004c0: 745a d762 3828 b53f 8e33 697f ca36 a93f
000004d0: 498b 083a 2867 a1bf 53b1 c3e7 0365 a0bf
000004e0: ae9c 17ed a449 9d3f 94b6 6e7a da84 d13f
000004f0: 205b 3279 0ca3 98bf 07c8 6851 924d a2bf
00000500: e218 1c08 8237 72bf c462 24da 3afd b23f
00000510: 5855 04f8 36dd a03f 51a6 aa92 fdbd 743f
00000520: 33ee 0a46 fc2e b83f 4acb c6a3 cd20 ba3f
00000530: 220b f0df 593e a8bf c3ab d2c2 6ed3 a9bf
00000540: c619 05d9 a834 bc3f bb90 2afc 5be9 c13f
00000550: 6408 9da2 8527 a7bf 9467 4187 f975 a4bf
00000560: 77f9 d4a1 fc38 793f 093c 00ce 4905 9c3f
00000570: 236a a9df 1854 9e3f c2e6 5d85 d837 b73f
00000580: 8428 8047 14f4 ca3f 96f1 8c82 5e79 bb3f
00000590: 45e0 ecc5 b529 9fbf b971 22ae a340 a0bf
000005a0: 4936 da82 534e a5bf 6a93 a5db 7528 97bf
000005b0: 9e83 2cdb 7753 89bf 69f4 44bb e146 a6bf
000005c0: c3f8 ae46 5f0d 95bf a68c 9d7f f3e6 8cbf
000005d0: 3be6 71ad 8356 97bf 3fba 06dc 5dbd 9abf
000005e0: da45 a0ab 7f5b 95bf 0ffe 3b0d 29ef bd3f
000005f0: a3da 644b 0690 a8bf 8bde b5a0 2cfa 78bf
00000600: 36a2 4698 d0be 8d3f 06e1 4b5f e332 b93f
00000610: b098 63c1 2dbe a6bf 385a 7aa5 17a7 83bf
00000620: 6634 29c8 48c8 b0bf bdb7 8b03 d46c 9bbf
00000630: 26a3 063d 93dd afbf 8bf3 4861 43a3 a5bf
00000640: a2ca b83f 6ca7 67bf a37f 4d3e fdb1 8e3f
00000650: 5752 95f6 efc0 a9bf 6b57 bdad 1030 a2bf
00000660: 804f 6d77 b0a4 99bf 7a4d 131a 284c 84bf
00000670: aac9 4cb7 fd41 94bf 3797 96ac 059b 94bf
00000680: 2996 c8f9 6688 97bf 6a85 15ac b45a b33f
00000690: 574b b68e 9156 a3bf d822 56cf 9ccf 7dbf
000006a0: 2aca 1273 d71a 753f 8d26 e077 f109 bd3f
000006b0: 0556 ad70 b82e a9bf 6439 1cd2 f84c abbf
000006c0: 0c73 1634 5c05 a73f 7d9b 95f2 b605 a63f
000006d0: 0adf 608c 852c 71bf 08ff ccaf 3169 a1bf
000006e0: 31e2 2365 e9dd 803f b4b7 7f2f 7cf3 a2bf
000006f0: fd2b e8d5 3750 52bf 8d21 a517 ae16 74bf
00000700: 68a2 7938 fca7 63bf 5f5e 42d8 061e 953f
00000710: bbfb 7b3a 745b 90bf 6a43 822f d448 9bbf
00000720: 4cb4 1948 aacd a4bf dd73 13e7 4211 ba3f
00000730: 14d0 02c4 6313 8abf 8a6f 0f04 9dcd 32bf
00000740: d581 b07f 3396 a3bf 38c3 26f2 000c a5bf
00000750: 0840 ed21 502d a1bf 5475 a3f9 b518 aebf
00000760: 5475 21aa b6c4 753f 046c dafb b9f4 70bf
00000770: 6fee 30e8 354a a8bf ddf7 58ed f7fc a0bf
00000780: b185 722a be63 c43f 03b3 c711 8dd8 b03f
00000790: d20d 4510 1e51 a6bf 2138 beaf 20f8 703f
000007a0: 2c3b a871 bf1e b83f b807 b0c0 6c39 d33f
000007b0: 6ff8 506d 04af 743f ece2 78a2 cc7d 95bf
000007c0: 8709 80f9 94c9 82bf 4c4b 2cf4 8b7d 90bf
000007d0: bfc3 25d3 01be 713f df2e 4c54 8032 84bf
000007e0: 27b4 edca c120 8fbf 6aa4 1987 180e adbf
000007f0: c82d 20b8 181a 88bf f238 442b 7083 a2bf
-0.07492948123407388 0.3168194966403019 -0.059306535539787215 -0.08851705158265634 -0.004552625118782178 0.07917681914331691 0.062170486355592816 -0.014246790774134719
-0.02870935872884202 -0.04368806787916563 -0.006897344561309702 -0.034889401957785164 -0.06639337663441724 -0.02959910125123043 -0.02634735717799078 -0.014910179496589656
-0.03710750916543807 -0.03061772485203647 -0.030238206106293148 -0.05112246196099603 0.0578129333789202 -0.021383384008018296 -0.023606536861693093 -0.034396065347831996
0.035958061381526206 -0.016387905768584943 0.088782339700821 -0.004056012909520183 -0.04530066008921589 -0.051010457871214734 -0.028932365428573355 -0.012514632972506698
0.3340533163626703 0.10143291826635202 -0.05215204903785426 -0.007380363115707771 -0.0197285659887784 -0.0017163866289475241 0.0059235217175202 -0.017309336948320757
0.142112141828201 0.09838508404988812 -0.031046650129193283 -0.04267025509307758 -0.011836926181518078 0.04539880911145962 -0.05398315498835645 -0.015641206771627485
-0.0014310471440892242 0.0011929112817976885 -0.020187049263147752 -0.04006931788053027 0.02362115766196844 0.19784697292225248 -0.03332745465032596 -0.056033427762971384
0.02244297354759368 0.09513160596293956 0.0002043372920769567 -0.04000656903115918 -0.005602569060508058 -0.028438714071797197 -0.04368286504059221 -0.01403473527712543
0.012666393294429465 -0.053771233498020744 -0.038324793058194674 -0.03887299445642456 -0.0387657545451967 -0.017781054097437222 -0.0559247867223644 -0.02463661188578088
-0.0204043272293379 0.13640386548892344 -0.04124906455407079 -0.016302667141161378 0.05455516498332656 0.09236423374391717 -0.03715854986094608 -0.009732980186899175
0.20806828939799465 0.09569701158433044 -0.04018480672384325 -0.038150804706104206 0.06401148527158095 0.06099759021865793 -0.0784603954344913 -0.039141034245550835
-0.020456726107289887 -0.003970939792914151 0.02483127992877068 -0.020250892322925446 0.0016116046271996128 0.058998253102427664 -0.04924057587352614 -0.04299324625690871
0.2140444539187806 0.06099181737940313 -0.01207504360165609 -0.0596344967658779 -0.010971998761372196 0.1659279976340909 -0.03341280731950541 0.017946968384416777
-0.023047660139326225 0.11029009905522506 -0.02718242779994187 -0.012372287885990707 0.0927439205250731 0.09051330711341993 -0.019881193614315 -0.03963180055292581
0.03776821764037425 0.08674718213555341 -0.012309187125926418 -0.03680407394330457 0.10265925723066002 0.05052954253535629 0.02472257138959482 -0.013993833738517487
0.18908545027051388 0.11516485091273261 -0.03371483953022376 -0.032183400946115076 -0.05434623578127838 -0.008971125156071024 -0.05190097053612451 0.03595737746404068
0.14300631943140935 0.09043843924369606 -0.053936603122423286 -0.030841961518481457 0.013324223096812339 0.048652560531500556 -0.053101202457411435 -0.01573256116337566
0.017298237641928213 0.23245028101807402 -0.029417605888341285 -0.03511468704775693 9.469572593066557e-05 -0.016309506907632283 -0.018099223558604573 -0.04518649083903179
0.06431648944335012 -0.0035774345358184747 -0.002059743320510084 -0.03305557975173743 -0.029495491465930935 -0.015487871463185648 -0.030074828795836856 -0.017109399884004037
0.08264496243587321 0.04924614720639574 -0.03399015148558832 -0.03202068523555348 0.028601242991410807 0.2737337298993705 -0.02405948152280779 -0.035748073995264966
-0.0044474677431536064 0.07417648149238248 0.03293773438978559 0.005064001578526226 0.09446694097544465 0.10206303833437605 -0.04735070093740591 -0.050441228181930885
0.11017852114046098 0.13993406117254445 -0.04522340402628869 -0.0399625756842418 0.006157862514838511 0.027363923261926746 0.029617680217009956 0.09069588905358741
0.21057370654336094 0.1073206967093426 -0.03043254871883529 -0.031743159300478614 -0.04161320659941887 -0.022615281611610007 -0.012366234184414012 -0.04350953494074689
-0.02055882328908677 -0.01411237939072969 -0.022790963612783193 -0.026113001398409216 -0.02085685238859534 0.11693054745773444 -0.047973820403446575 -0.006097959830519205
0.01452410664281088 0.09843274189541171 -0.044419698578893274 -0.009596047151075301 -0.065556095950528 -0.02678233405725171 -0.06223735923715017 -0.04226122438965437
-0.00288745062223346 0.014987925018146891 -0.05030012021112345 -0.035522958000611414 -0.025042302407498607 -0.009910882278211675 -0.01978298598550913 -0.02012261262793588
-0.022981270785882444 0.07560280991812865 -0.037769840880307264 -0.007278072870925377 0.005152551269179054 0.11343297173166374 -0.049184573893096974 -0.053321624420379604
0.04496276985012146 0.04301234923587225 -0.004192849801306195 -0.03400569220548105 0.00823576297669701 -0.037013893888669186 -0.001117758299758575 -0.004904441879553534
-0.002399437540408212 0.02062235541288115 -0.015973869390105238 -0.026645007514676612 -0.040631600667304285 0.10182588712218839 -0.012732295436173081 -0.00028691371340782616
-0.038255318963141306 -0.04110720592451006 -0.03354883588929175 -0.05878227875084954 0.005314553769577419 -0.004139639376854912 -0.04744118174900513 -0.033179996226394094
0.15929390976547844 0.0658043068321597 -0.04358762692075015 0.0041428829971561784 0.09421917462189516 0.30037993256712126 0.005049721997293684 -0.020987698952214126
-0.009173549522533587 -0.01610392263234965 0.00433159554300827 -0.009861948559339804 -0.015199197774302743 -0.05674816750690399 -0.011768525237150565 -0.036159043580583985

linear.bias f8 [10]
00000000: c6b2 9078 5872 a9bf 1387 d711 6f0a 93bf
00000010: 3b98 e119 4a14 a0bf c0e3 10bf c00c bf3f
00000020: e540 3212 55ba b03f 7e56 fb23 d8f4 ba3f
00000030: 8a21 3b18 9978 753f b7e5 318e 1e6a 9ebf
00000040: e876 f095 da98 c83f 8bb1 a21b ce5e a73f
-0.04970051261657242 -0.018594489540084313 -0.031404796275453305 0.12128834404656086 0.06534320539708778 0.10529852751218446 0.005241964364991589 -0.029701688221825253
0.19216472932105622 0.045645180581547505
