weights/STSIM_01272022_global_VGG/epoch_0238.pt (torch, 472569 bytes, 2 tensors)

linear.weight f8 [10, 5892]
0	0x3fc741fcb057d446	0.18170126543523873
1	0xbf862942ea48db07	-0.010820887350843756
2	0x3f96ddd86e53b42c	0.022330648168395736
3	0x3fb2dac2558d1e39	0.07365049923566226
4	0xbf903097b4a92c23	-0.015810366059934588
5	0xbf92b518b5094318	-0.018268953370639357
6	0x3f90e1033ed66c95	0.01648335524587859
7	0x3f999fdcabda5c29	0.025023887623856354
8	0x3f84fc52d03f94e4	0.010246893863902824
9	0x3f92563bf185fedf	0.017907082191867537
10	0xbfc80231a9f93dec	-0.1875669555615639
11	0xbf92aa99b2f8a1bc	-0.018228913830314872
12	0xbfcb9658966943e8	-0.21552569717689996
13	0xbfb99caae81fc74e	-0.10004680792897355
14	0x3f9f3c2486638f7f	0.030502863600204485
15	0x3f740e9a262b44d3	0.004896738190567978
16	0xbf72d024eb445abf	-0.0045930330418488255
17	0xbf918f60f671f03e	-0.017148509065450172
18	0x3f9956361d83384e	0.024742932845406344
19	0x3fa58795b680cf43	0.04205005505391892
20	0xbf8d9ee7af436615	-0.014463243518934946
21	0x3f9ed573ab638bbb	0.030111129127259533
22	0xbf92c170478d89c3	-0.018316034667245306
23	0x3f8c4d2c00327edb	0.013819068676013504
24	0xbf8c1047ad7f77c5	-0.013702926618801467
25	0x3f93b9444cef55f6	0.019261424251302693
26	0xbf9adf1dd87c5475	-0.026241747225033103
27	0x3f72faf78ec10548	0.0046338720531491975
28	0x3f6bc8ff788f63df	0.003391741720843985
29	0x3f8e7636924e7c79	0.014873911228106206
30	0xbf21ca9070a400dd	-0.00013573659118293934
31	0xbfa50534b32d4d3b	-0.04105534255236384
32	0xbf962970a722f95e	-0.021642456246575896
33	0xbf810f62f2f73fe9	-0.008330128707626687
34	0xbfb1123cc01d7324	-0.06668452921207951
35	0xbfa10d34cf05c477	-0.03330388095026476
36	0x3f96394405eae266	0.021702826367546633
37	0x3f842b66fa48e742	0.00984840823467759
38	0xbfaa76d536e614ed	-0.05168787284041252
39	0x3f94ba417820f36c	0.02024175925929532
40	0x3f67aca61066e5a2	0.0028899424971455404
41	0x3f53e6d106cff6b2	0.0012146989131446681
42	0x3f78fd4bff4f0f1e	0.006100937714055536
43	0xbfac1ec1c91f2a41	-0.05492215709781024
44	0xbf95f2853cc14890	-0.021432954629127254
45	0xbf663e43f4a7e540	-0.0027152373561391274
46	0x3f9392091a3417fa	0.019111768936475905
47	0x3f296743f2e3d440	0.00019381241276730972
48	0xbf78420914ff25c8	-0.005922351338037264
49	0x3f8c8a3b70b23d70	0.013935531975475896
50	0x3f7c23d7f10c05ef	0.006870120546183397
51	0x3f92393fdf500c35	0.017796514515804957
52	0x3f68d3b44d43777e	0.003030635978673978
53	0xbf8a07f918dc1c51	-0.012710519858513932
54	0x3f92628a335055bb	0.017954024679132746
55	0xbfa0c2250f3597ec	-0.03273120699559215
56	0xbf8969ca7872d8e7	-0.01240881137924217
57	0xbf42658090cd30e0	-0.0005614164125318476
58	0xbfb9f7ef4cb87dac	-0.10143943427146124
59	0x3f880dc7a1b53848	0.011745032904084365
60	0x3f93fd2af134f311	0.019520445797058864
61	0x3fa4a587fde8f16e	0.04032540297018526
62	0x3f9c4e3a40411fa6	0.02764216439416569
63	0x3f8e9accf96c3300	0.014943696367049508
64	0x3f98a9dfac66462b	0.024085516831808967
65	0x3f921996a5a2a276	0.017675737247062583
66	0x3fb0c2f13ac6c484	0.06547458348247132
67	0xbfa3d8737f852fee	-0.038760766331136995
68	0xbf9fa1671ec68556	-0.030889140370736833
69	0x3f8c6d474cd08992	0.013880307227798015
70	0x3fa4b62ea9c0f435	0.04045244047345201
71	0x3f8242ed9e6271ff	0.008916717906964243
72	0x3f8976e9d16ed928	0.012433840469253513
73	0x3f92f3b06028504f	0.018507724637018715
74	0xbfb14494fb92f74b	-0.0674527277178331
75	0x3f82dd3542c7ef72	0.009210983372206025
76	0xbf88e83f32d6bded	-0.012161725748994956
77	0x3f5ef078150c8fd1	0.0018883869817693975
78	0xbf9aae917ecfe112	-0.026056550374023386
79	0x3f90ff3addc8927c	0.01659862497958152
80	0x3f8e0e3c79ccfd3e	0.014675590960563253
81	0xbf693c79435cf019	-0.003080593912185858
82	0x3fa755dd39e355b8	0.04557696658745719
83	0x3f8599ea7e9304b1	0.010547477710476679
84	0xbf8b3de1c23d78f9	-0.013301624050367599
85	0x3f43ad2af3f1beaa	0.0006004771929734771
86	0x3fb81fe546815740	0.09423668834037091
87	0x3fae4efaa9867880	0.05919631308937401
88	0xbf50b953411a2ccc	-0.0010207474737480736
89	0xbfb3ec4ba5314ae1	-0.07782433302899562
90	0x3f8117f48c686d4f	0.008346472296628575
91	0x3f9aa175cbb35110	0.026006546552552356
92	0xbfaef5e5f6658f1a	-0.060469805076335884
93	0x3f805534d5e78ca0	0.0079750182894201
94	0x3f7ffe8b904467db	0.00781111256608288
95	0x3f8d5322a6d469a7	0.014318724361648117
96	0x3f9799ba52f03000	0.02304736262526319
97	0x3f83208abab5a427	0.009339412520335056
98	0x3fa5600e40d8237c	0.041748471656382485
99	0xbf92df14a78e673c	-0.018429110266516377
100	0xbf3a662815d81a2f	-0.00040281752248497426
101	0xbf8a6e31322fbd30	-0.012905487388677445
102	0x3f938e9c258290a1	0.019098701276235478
103	0xbf94fd90600b75a0	-0.02049851976595607
104	0x3f20b352c0ac9c74	0.00012741456188189763
105	0xbf6af81ee6152ea9	-0.0032921412936611394
106	0x3f6498dbbb3aa875	0.002514294779605792
107	0xbfb7b0c1aba2e709	-0.09254084053364066
108	0xbf4ad393e2fce87e	-0.0008186790564430749
109	0xbf808f9bec74e58b	-0.00808641257627831
110	0x3fbbcc9a30167822	0.10859073328035199
111	0xbfb2adef7c8a1fd1	-0.07296654501453693
112	0xbf76147ce0ff4705	-0.005390632446464987
113	0x3f9204bc24d0fb03	0.017596187350359404
114	0xbf9ae874866ec78e	-0.026277371125338393
115	0xbf92df0ff7bef34d	-0.01842904042836162
116	0x3f99c31509ac2eb6	0.025158241954200654
117	0x3fa794a9c741b779	0.046056085179642055
118	0x3f6e7a34754d1ef7	0.0037203812193274915
119	0xbfc4098736d80706	-0.15654077699587549
120	0xbf7ababc629eaf46	-0.006525741462535544
121	0xbf88458eafd91464	-0.011851420155958255
122	0xbfd22280c69da2b0	-0.2833558978659694
123	0xbfc1ae55484a539b	-0.13813272504617377
124	0x3fb05ad5d1ff8ef4	0.0638860356989957
125	0xbf74a1326cf21a5e	-0.005036541914825136
126	0xbf9ebd8489c5e3aa	-0.03001982775592508
127	0x3f87c443745c72d2	0.011604811657485756
128	0x3f8cf6871c2e709b	0.014142089412239314
129	0x3f94680b2bd70457	0.019928144980216746
130	0x3fb93f3b29fcaaba	0.09862108016083485
131	0x3fa5dee668199cad	0.042716217238927136
132	0xbfa1fcc4440d5418	-0.03513158159936597
133	0x3f67202979ff3b6e	0.0028229532326586237
134	0x3f9b9548603eea4e	0.026936655878424802
135	0xbf79ab3459972d47	-0.006266788951914854
136	0xbf85de58c61d2b45	-0.010677999063451469
137	0xbf90352d2d3944ae	-0.01582785213969789
138	0x3f7ba1d7274bffc6	0.006746139949200319
139	0xbfca0c2ec387d764	-0.20349678561586437
140	0xbf7a7c8f1931896d	-0.006466444948360778
141	0xbf8ef448d7042a04	-0.015114373266006183
142	0x3f8df13603535b9d	0.01462022969864823
143	0x3f95949c0114ce75	0.021074712339397245
144	0xbf8a08d3b5f98c80	-0.01271214865773218
145	0x3f87691b2382e359	0.011430942555635747
146	0x3f70b2dc86d85406	0.00407682555443945
147	0x3f6072b4626095cb	0.0020078204279509785
148	0xbf786af693d54fcd	-0.00596138305020939
149	0x3f9a6eea3af8ab2c	0.025813732003523146
150	0xbf81c38804e08bc9	-0.00867372765430287
151	0x3f7e840b6193d26a	0.007450146157897389
152	0x3f6c4f59377b3f97	0.0034558050645969274
153	0x3f853af28c09b6df	0.010366339586848237
154	0xbf88d92a71fdaec7	-0.012132960895278612
155	0x3fa1d75e9549ba16	0.03484626362193326
156	0x3f652f4c352517f6	0.0025860298566469054
157	0xbf5e314206e397b5	-0.0018427986902280595
158	0x3f971d370e2322e0	0.022572384107465093
159	0xbf70415e8ec96da8	-0.0039685910856763
160	0x3f60061462adab91	0.001956023993832053
161	0x3f96af28e83e7c23	0.022152556586316884
162	0xbfa9bf5f5beb934a	-0.05028818127701713
163	0xbf803018f6703df8	-0.007904238720612064
164	0x3f734106749f3e7c	0.004700684754382341
165	0x3f8a8861c2c68a2c	0.012955440289094865
166	0x3f9170d305cd26e7	0.017031953076446362
167	0x3f9e1457bbdcb3ef	0.029374476281350977
168	0x3f2c463c4f727d44	0.0002157162304898629
169	0x3f858fe412360bde	0.010528356366881594
170	0x3f9336cf2db6e45a	0.018763768353640443
171	0x3f9881bebf60fb68	0.023932438307606857
172	0x3f695493cf92f0db	0.0030920874529255355
173	0x3f70fa4df86acc0b	0.00414495904140023
174	0xbf9282d46a49b037	-0.01807720087747119
175	0xbfa06787ae143838	-0.0320398712157019
176	0xbf820c7a4f0fae8b	-0.008812861955411996
177	0xbf83d07596765cf1	-0.00967494836258573
178	0x3f89857db6ae3e4b	0.012461645257444995
179	0xbf7525cb81b9acb2	-0.005162997196389062
180	0x3f94b16ac4407156	0.02020804236245629
181	0x3f94aa476fce0971	0.020180813025498737
182	0xbf8199a128153504	-0.008593806300860603
183	0x3fa207e9af1bac56	0.03521662008810071
184	0xbf73e6e1a4a3025d	-0.004858857553870691
185	0x3f7ad72150a9013a	0.006552820336367221
186	0x3f70bd77f5aae5c4	0.004086941330279929
187	0xbf77bd1d14116ed4	-0.005795587146248688
188	0x3f5c1ef4fc508148	0.0017163650929959574
189	0x3f97a3bac0a5c08d	0.023085515983837502
190	0xbf734fa037d2e4e4	-0.004714609004787127
191	0xbf995df0eb60a07b	-0.02477241932516037
192	0x3f5a76310cebb5b1	0.001615093136645523
193	0x3f8bc64d36a4c5e3	0.013561824064342204
194	0x3fa1f48b033b6e6e	0.03506884016470911
195	0xbf6973aa8435b68a	-0.00310691169732175
196	0xbfa784fc165e9e20	-0.04593646786753092
197	0x3f93d522af2ed580	0.01936773485404819
198	0x3f90a671a72757eb	0.016259933306933688
199	0x3f94d68f3682aca3	0.02034972925382007
200	0xbfa92db8d65a2b67	-0.04917695633510882
201	0xbf7bfe5d2a30fd69	-0.0068343772173301365
202	0x3f88e0a52b78d4e3	0.012147226704750163
203	0x3f9bff6c3c5432eb	0.02734154813974758
204	0x3f91452ae53df7f9	0.016865415803742654
205	0x3f9b34dc87c176f3	0.026568837915298137
206	0x3f7644adf77fbed2	0.005436591680321805
207	0x3f39450ddf384c3d	0.00038558567686769793
208	0x3f8227a895855d8c	0.008864705145852601
209	0x3f896e8402375189	0.012417823140744815
210	0xbf62e8f35c487de9	-0.0023083451399228305
211	0xbfc09c9baa63dc3b	-0.129779298971444
212	0xbf983abeabb7b36d	-0.023661593657311842
213	0x3f77bae574f0fa10	0.005793472591050022
214	0x3f8c9c216cd2a58a	0.013969670423039888
215	0x3f999dfb6235e664	0.025016715878768983
216	0x3f703ffb38d09604	0.003967267356562502
217	0x3f9767492366dbc6	0.02285494116378197
218	0xbfb2b6a7a6081af0	-0.073099592242311
219	0xbfa2b7554ed2bccd	-0.03655497157284913
220	0xbf76366a7f73c943	-0.005422988898532491
221	0x3f9a09a51f5031e4	0.025427417789659304
222	0x3f6ee95408c869d3	0.003773368958957615
223	0xbf95da246a5a8352	-0.021339959136301552
224	0xbf670424ba2c3265	-0.002809592945942451
225	0x3f966f23ac96d575	0.021908337983139476
226	0xbfc498088b501a3c	-0.1608896904219409
227	0xbf80313084dcda87	-0.007906321577690235
228	0x3f99fe681c692d75	0.025384546979962026
229	0x3f922fe0a44f1ada	0.017760763195634556
230	0xbf4cc963415fcbdc	-0.0008784994740821356
231	0xbf7ca075f28e03f6	-0.00698896477922605
232	0xbfc270f337a09da1	-0.14407196251088997
233	0xbfad17eb972ebc3a	-0.05682312221994619
234	0xbf86ef802210d72d	-0.011198998489003376
235	0x3f82886c66022ee6	0.009049269545605875
236	0x3f84c3cb535e66c7	0.010139072877609746
237	0x3f83a6355ce46245	0.009594361207335153
238	0x3f921a9157bf1e2d	0.01767947290480103
239	0xbf845b482ba9f2b6	-0.009939731438174487
240	0xbf66384184241891	-0.002712371789246389
241	0x3f7d9fef37188693	0.007232603487439387
242	0xbfbc92a51f4838a2	-0.11161262525294771
243	0xbf878c13bce15fa2	-0.011497644616767225
244	0xbf8212eefc681edd	-0.008825175359575105
245	0x3f66db1d1a50b17c	0.0027900284208241515
246	0xbfb1dea238d98652	-0.06980337036068221
247	0xbf7221201430ea99	-0.004426122005549837
248	0x3f63e6b08f9a52f1	0.002429337354281074
249	0x3fa14762c2aaa36f	0.033747755301482545
250	0x3f88e9a858a962cf	0.012164416509379631
251	0xbfb800f6a024f1b9	-0.09376470002911831
252	0x3f7c59b951831f46	0.006921504879023937
253	0x3f92eb85948c2107	0.01847656935845612
254	0x3f915b5cae29ec64	0.016950080995666986
255	0x3f63b47804e488eb	0.0024053901789936514

linear.bias f8 [10]
0	0x3fa83bac232f8ca0	0.04733026437295362
1	0xbfa4c6868b198916	-0.04057712982172938
2	0x3fae2a362eda7a1d	0.05891579935017808
3	0x3fae9f4b71ded69c	0.05980907216091433
4	0xbfb3d99a9c762216	-0.07753912277087979
5	0x3fcf0c3816c64856	0.24256039726293704
6	0xbfb6b8543b357b05	-0.08875013776330938
7	0x3fd0da152597fe5c	0.26331070586454586
8	0xbfb5b7c4170f9551	-0.08483529627809118
9	0x3f9c9402d176ca72	0.02790836719004592
