weights/STSIM_01242022_SCF_global_mode0/epoch_0199.pt (torch, 7737 bytes, 2 tensors)

linear.weight f8 [10, 82]
000000 5c 6a bd 6f e3 97 c2 bf c8 26 17 21 d3 0c e3 bf
       -0.14526026683855064 -0.59531551802612
000010 65 b6 7c b1 7b c7 b4 3f 77 09 4b 75 2a 80 bd 3f
       0.08116887171919414 0.1152369057045116
000020 85 cd 40 a4 94 51 eb bf 66 d3 c2 3f f2 46 da bf
       -0.853708573157221 -0.4105802176157368
000030 d3 6a 33 f2 43 33 f3 bf 78 5b f9 f6 61 d2 ec 3f
       -1.2000159703226714 0.9006814788543656
000040 ad 26 ff 7e e9 ab 91 bf a5 f9 1c 1a 13 87 e5 3f
       -0.017257355095159955 0.6727386007331019
000050 db 54 82 24 ab 65 aa 3f 7e da 86 84 49 62 e2 bf
       0.05155691929500402 -0.5744979465878968
000060 27 de ed 2d a9 45 c2 bf a0 eb c8 2e cf 56 db bf
       -0.142750880647996 -0.42717341965515665
000070 83 1e 93 fb 3a 96 ad bf 68 3b 34 8c f8 07 dc bf
       -0.057786792001533825 -0.43798650447654675
000080 23 19 ce d0 ad 66 c2 bf f2 ba b8 08 d1 8e f5 3f
       -0.14375851340828047 1.3473673191726303
000090 20 d4 66 64 ca 5a da bf 16 b2 78 cd 5b 95 b9 bf
       -0.4117914181218243 -0.09993528143304106
0000a0 3f ae fa ed f1 51 d7 bf 47 6e 36 99 6b ed c7 bf
       -0.36437652816923455 -0.1869329927547929
0000b0 ab 3d 40 ff 92 2b dc bf 7a 2f b2 0e 10 a7 bb 3f
       -0.44015955855226235 0.10801792486944164
0000c0 44 ba 98 9d 1f 88 d6 bf c1 a8 7f 69 86 0b de 3f
       -0.35205831899921614 0.4694534330616414
0000d0 90 68 c3 e0 30 74 c3 3f 63 ed 68 cf b4 75 e6 3f
       0.1519833657719727 0.701868443581969
0000e0 f4 ce 9a e4 43 24 af bf a6 fa 5e 4f 92 c2 c3 bf
       -0.06082355657181707 -0.15437535167253208
0000f0 04 19 30 24 c5 a7 9e bf 68 94 da b9 82 6e c3 bf
       -0.02993686707852651 -0.15181001734632393
000100 35 44 da bb eb e7 e2 bf 95 f8 14 49 10 da ed 3f
       -0.590810648822418 0.9328690936452114
000110 07 4d f4 d1 84 93 e1 bf 6c 5b 8a e3 59 1e db 3f
       -0.5492576695127419 0.42372748585460474
000120 0f f2 1e 45 33 97 d2 bf 32 fd c7 07 10 4d b4 3f
       -0.29047853231512105 0.07930088224383239
000130 b4 4f 4b ff 44 a5 d6 bf 45 b4 b6 29 b4 9f d2 bf
       -0.3538372510058665 -0.29099754403688777
000140 2c 4f 9b 20 6a d0 88 bf 23 85 e0 9b a3 0f ca 3f
       -0.012116269226147468 0.20360226737197093
000150 4c b6 0d 06 e1 f1 4f 3f 54 c0 02 13 44 aa b4 3f
       0.0009748791454577493 0.08072305168275423
000160 49 48 28 db bc 19 e0 3f 76 18 b1 d2 0f e9 e0 3f
       0.5031418114106226 0.5284499278138941
000170 1c ee f9 d8 e1 0f c7 bf f1 02 24 b9 1c a1 d5 bf
       -0.18017218679948221 -0.3379585083021502
000180 37 9e e8 7b 96 5f c6 bf 73 0e 0e 0c 6c cf d8 3f
       -0.17479210901477568 0.3876600377773009
000190 8f 66 7f 25 b1 07 a9 bf 40 31 3f 46 75 8a d2 bf
       -0.048886810138083374 -0.28970081195872766
0001a0 a6 5b e4 7e 93 af 4a 3f c1 5f da 90 c7 41 9b bf
       0.000814387339945867 -0.02661811658489888
0001b0 46 d3 67 da d9 d7 c2 3f 8d 90 d8 fa dd 07 c0 bf
       0.14721224941572525 -0.12524008510911636
0001c0 48 fa bf a3 f5 b3 dc 3f 08 48 5f 6f 48 64 c1 bf
       0.4484838580246202 -0.13587289274306635
0001d0 85 98 99 c3 f0 74 de 3f 5c 33 39 4a 5c f5 e0 3f
       0.4758874807506646 0.529951233832985
0001e0 54 c1 4d cc 36 bd b8 3f 6d bf e8 55 48 c4 86 3f
       0.09663717735179961 0.011116566774120174
0001f0 43 25 63 5c 8e 10 d9 3f ff 1d 65 b6 f3 fb dc bf
       0.3916355039805987 -0.4528779298020424
000200 c0 35 ab 55 29 87 d8 3f 7a 08 98 a5 39 25 ad 3f
       0.3832496010407702 0.056924630607697105
000210 1b 1b 27 61 86 8a ca bf fc 25 3d 4a 12 f8 84 bf
       -0.20735244506632786 -0.010238783732023464
000220 11 28 a3 53 0b b7 ad bf ea 72 b0 c3 66 da 8b bf
       -0.05803714176143172 -0.013600161406480866
000230 b9 4d 14 e6 dc e6 cb 3f bf a2 b6 6e 92 1b b4 bf
       0.2179828761514793 -0.07854571536030173
000240 24 4a 20 c5 c3 a0 bb 3f 40 96 14 07 b2 34 d2 bf
       0.10792182505273523 -0.28446627322623286
000250 fe dc 0c 4b f8 a1 b0 3f ef 6e cf f1 7d 47 76 bf
       0.06497146446496413 -0.0054392738065549414
000260 2c ee d3 f6 ad ca c1 3f 43 cb 18 36 1f 47 b0 bf
       0.13899778892651804 -0.0635852343628303
000270 83 0d 0d 19 d8 68 ca bf 05 c2 fa 58 ba 4e be bf
       -0.20632458899681802 -0.11838879272796284
000280 9c 3c 14 00 fa f9 e2 bf 07 78 40 5a 34 06 8d 3f
       -0.5930147172492926 0.014171990398661917
000290 bf 90 41 65 c1 12 dc 3f c4 da 2a 02 33 d7 e6 3f
       0.4386447419003722 0.7137694399196666
0002a0 b0 df 29 af 9c de c3 3f f7 46 d4 cc 08 9c c0 3f
       0.15523108055981316 0.129761791242849
0002b0 e0 43 ba 54 28 f3 e0 3f 1e 21 43 21 f1 a2 d3 3f
       0.5296823172412779 0.30682018516792364
0002c0 79 49 93 14 4a 9a ce 3f 6d 23 33 cc 92 dd b2 bf
       0.239083538099816 -0.0736934422049111
0002d0 fc c4 e2 96 27 69 67 bf 4b 63 56 27 f5 80 c7 3f
       -0.0028577588301109662 0.18362297459386875
0002e0 47 99 8d bb 36 7d b2 3f dc 17 dd e4 40 bb d1 3f
       0.07222311095174404 0.2770540461536919
0002f0 a6 7e e9 67 d8 c2 6d 3f 10 1f 82 28 13 d0 d8 3f
       0.0036329485586035935 0.3876998801792846
000300 c5 b9 ca 69 08 5f b5 3f 26 32 27 ef 1d b5 c8 3f
       0.0834813364296912 0.19302725007436655
000310 49 53 71 73 d8 f0 d3 3f 5e 3c 66 01 2e fc bc bf
       0.3115750434274572 -0.11322295698322324
000320 c0 1f 22 2a 58 15 cf 3f ff a3 49 35 d3 38 c2 3f
       0.24283887917795077 0.14235916234909493
000330 3b ab 6c 4e 16 62 bd 3f 3c e1 fc 82 3a 65 97 3f
       0.11477794088993402 0.0228470938156715
000340 8f b7 10 dc b1 4f c5 bf 20 79 49 60 91 6f a1 bf
       -0.1664945911920168 -0.03405432033899758
000350 aa 4e 21 9b 15 ea 60 bf d4 f7 5e 35 4e 92 c9 3f
       -0.002064745139287745 0.19977738958362912
000360 c3 90 0d 49 eb af a5 3f b3 cc 8b 72 0d f5 87 bf
       0.042357781093217216 -0.01169786935631687
000370 ff 31 57 ab af b4 b3 3f ea d1 cf e9 9c 29 d4 3f
       0.07697580273742942 0.3150398524587944
000380 0c 5a 7f 0a 04 df a2 bf b3 b2 07 ca 22 aa c1 3f
       -0.03685772541182439 0.13800463547467742
000390 9e c2 c8 a8 45 5f d2 3f 9d d8 86 d4 4b bc 9c bf
       0.287064947918262 -0.028062043043711616
0003a0 9f 2c b5 75 b0 58 c9 3f 84 80 32 3c 56 37 a4 bf
       0.1980190825218857 -0.03948468670682906
0003b0 c0 f2 2f bc 8f 73 c3 3f 27 53 31 5a fc 22 80 3f
       0.15196415604432012 0.007879230024778373
0003c0 b9 81 f0 25 05 2c 80 bf 1d 7a d6 57 d3 5b 86 3f
       -0.007896461696930911 0.01091733085450835
0003d0 8e 28 ad 7d 37 65 cf 3f 67 c5 f9 ec 13 95 b9 bf
       0.24527639042418453 -0.09993099723376063
0003e0 c2 3c 04 9a dd 83 c2 bf 79 15 e9 d7 c5 fe c3 bf
       -0.14464921970691164 -0.15621254961494538
0003f0 0c 67 1a fb 2b af 95 bf 99 9a fa 9f a4 5f 96 3f
       -0.02117603988754184 0.02184922434266898
000400 31 af 5b 3b 11 a1 c1 bf e0 69 e0 1c 85 5c c3 bf
       -0.13772788427683616 -0.1512609854697322
000410 a9 55 f7 2b ad 29 ba 3f 0f bc df 14 8b 2d a0 3f
       0.10219843219177584 0.031597467706767295
000420 80 41 b5 ff 10 bc a1 3f 55 56 47 4f f6 54 bf 3f
       0.03463795777736589 0.12239016948236643
000430 2d c3 b1 3c b0 f9 bc 3f 46 76 64 7a 26 28 92 bf
       0.11318494302555555 -0.017731286258927413
000440 53 d8 90 75 10 da b2 3f 7d 30 6d 90 71 68 af 3f
       0.07363989706286249 0.061343716507139746
000450 89 b0 21 de c8 2e ab bf 61 a8 73 56 d9 ee c7 3f
       -0.05309131347243674 0.1869765922668334
000460 b3 0d c3 18 39 66 a9 bf 87 fb f5 27 5e cf b0 3f
       -0.04960802485723139 0.0656641814766613
000470 85 c2 19 02 f4 aa a1 3f 87 e8 26 2f 66 dd 62 bf
       0.03450739408151996 -0.0023028369698439607
000480 eb f1 db fd f1 7e bf bf b3 3a 16 51 00 aa c2 3f
       -0.12303078124745752 0.14581302604024912
000490 97 05 c1 14 d7 a5 b0 bf 3d e9 1d 69 ea fa c2 3f
       -0.06503052002610442 0.148282338453848
0004a0 e8 b2 16 16 60 28 92 bf 62 8c d1 b7 16 e2 b3 3f
       -0.01773214468782927 0.07766859042890098
0004b0 fb be 06 87 83 79 a4 3f b9 87 22 b4 e9 0d c0 3f
       0.03998957656165022 0.12542458816193205
0004c0 f6 e9 ea 89 8e 62 b5 3f 18 2f 19 09 05 26 b5 3f
       0.08353510729913424 0.08261138412597935
0004d0 d4 4b 96 4c de 84 03 3f 50 d4 b2 bb 57 a2 b9 bf
       3.722957041953743e-05 -0.10013340313419516
0004e0 84 9e ff 37 75 41 a8 bf 1b c4 8a 90 33 0a ba 3f
       -0.047374404035335466 0.1017181613813282
0004f0 86 df 9a 90 f1 17 98 3f 57 e9 01 2e 6d 4a 91 3f
       0.02352883763407434 0.016885477002213403
000500 68 74 80 29 cf 9b 7c 3f c0 b2 f7 2d fb 43 b1 3f
       0.00698452875806508 0.06744356033568533
000510 6b 46 2e b4 a0 95 c0 3f db 6b 6b 98 62 4d a9 3f
       0.1295662765301587 0.04941852675047872
000520 c6 e8 16 1b 5f 3d 7d bf 66 98 f9 e0 cd 0f d0 bf
       -0.007138606555083088 -0.25096461267674497
000530 65 c6 64 57 c3 12 86 3f b0 e8 fb d9 fa 97 be 3f
       0.010777975182097064 0.11950652906299086
000540 59 a2 51 51 e2 76 e4 bf 43 38 53 58 2a ee cd bf
       -0.6395122135409778 -0.2338307315134803
000550 01 3e d8 68 00 67 cb bf dd c1 27 6f 4a 48 b4 bf
       -0.21408085936899116 -0.07922806943657386
000560 c1 8e bb 00 70 d1 db 3f 07 84 e7 8d 99 ed cd bf
       0.43465805121944007 -0.23381347111629244
000570 ac 7b 0c 79 4f b8 c7 bf 87 fd fc e7 d0 58 d2 bf
       -0.1853122082765969 -0.28667090087034136
000580 2f 24 e8 24 42 a8 c4 bf d0 28 f0 62 aa f1 d9 bf
       -0.16138483812417934 -0.40537509595800447
000590 af 5b 7e 54 c1 00 d1 bf 58 86 c3 23 90 6d c2 bf
       -0.2656710934765511 -0.14396859880712287
0005a0 25 8b 30 87 0e 12 cf bf 45 39 b4 67 90 e1 a2 3f
       -0.24273854828887767 0.03687716737668948
0005b0 48 11 ce 33 1d 26 cc bf 8a f2 ad cb 92 1b c8 bf
       -0.21991314916170723 -0.18834147401129925
0005c0 19 e1 79 d5 59 22 c0 bf 02 62 d5 e3 2c f6 a6 bf
       -0.12604830669057135 -0.044846918880185896
0005d0 7e 67 6e ec 3c 6a d9 3f f1 8d 45 5c 8b 75 ad 3f
       0.3971092518710221 0.057537417424807454
0005e0 eb 08 29 ff 6f 81 8d bf bc 46 b0 ed 55 67 cd bf
       -0.014407038664220958 -0.22971605401885664
0005f0 27 9e 4f 2d 07 cb 89 3f ff 16 54 53 b8 fc b7 3f
       0.01259427649524898 0.09369995149981135
000600 83 f3 86 c7 d4 98 a7 bf d5 88 7a 97 a8 1c a4 bf
       -0.046087884289113944 -0.03928114747147197
000610 23 3e 39 eb 26 39 af bf 9e f0 c8 39 31 b9 c3 bf
       -0.06098291036016359 -0.15408912011651393
000620 f8 2e 56 5e ab bd d3 bf c6 3b 98 38 8c a2 b6 bf
       -0.308451501966132 -0.08841778165536515
000630 01 a8 36 ba 07 62 b7 bf 60 13 5e b0 6d 37 9d bf
       -0.09133957191684773 -0.02853175534211816
000640 a3 91 cf 1f 25 9c c1 bf b7 a8 43 33 68 a2 9d 3f
       -0.1375776677442789 0.028939846161770002
000650 b8 f3 73 43 dd 3d cd 3f 7f 0e 12 26 5f a1 c1 bf
       0.22845044892883748 -0.13773717268860605
000660 a4 f8 ec cc 8d 6d d4 bf 99 4f fb 18 66 d6 a2 bf
       -0.31918663990280494 -0.03679198317482175
000670 ea 8d 0b b1 a6 72 b9 3f 9e 40 00 aa 84 49 bc 3f
       0.09940568754569026 0.11049679899611184
000680 6d c1 56 0e c2 07 ab bf c6 a5 57 ab a6 67 cc 3f
       -0.052793564081528334 0.22191317907645053
000690 e7 26 58 cc 5a dc d4 3f 8e 76 9e 3f 29 72 ca 3f
       0.32594938235761933 0.2066089211120254
0006a0 5e f6 7d e1 bc cf c5 bf e7 26 d9 07 25 a8 dd 3f
       -0.1704021550212244 0.463387735046679
0006b0 13 08 92 c1 c8 4e ba 3f 31 82 63 42 18 4b ac bf
       0.10276465154495922 -0.05526042757424355
0006c0 5f 46 6a 7e 94 8a 90 3f af 7b 51 bc 7f 3f a3 3f
       0.016153640952842326 0.03759383367354673
0006d0 37 89 82 ae 99 7f 9c 3f c5 81 0f 9a 69 de 99 3f
       0.02783050658821048 0.02526249888239975
0006e0 b6 dc 6a 72 fa b5 b0 bf 30 b1 38 d9 b9 6a b3 bf
       -0.06527676862139029 -0.07584725907571932
0006f0 f9 c7 33 fb ac 2a 9c 3f 6b 10 94 da e4 77 b1 bf
       0.02750654490677815 -0.06823568664919015
000700 cb 94 a1 8d 66 b5 c6 bf 76 fc 4a fe f6 52 b2 bf
       -0.17741090694031522 -0.07157844265292276
000710 3d 5b 16 95 7e f7 b0 3f 29 ac 2b 56 0f 88 b0 bf
       0.06627646579577813 -0.06457610944532689
000720 6a 87 8a 0f cb 6f 6b bf 3e bb e7 d7 34 2e b5 bf
       -0.003349205592102435 -0.0827363040077502
000730 cb 33 72 a2 16 63 c7 bf 85 9b fc 31 b4 3a ab bf
       -0.18271143848360646 -0.053182250120065645
000740 ed 86 3b 6f 3b ba 45 3f d5 0b 5e 0a df dc d0 bf
       0.0006630697448281854 -0.26348091137350355
000750 84 69 31 8a b0 16 b8 bf 15 63 da 9f 38 9a b3 bf
       -0.0940962159524244 -0.07657197859442662
000760 03 07 78 b2 67 01 94 bf 7d a0 9c 4d 94 0e cc 3f
       -0.019536609905123303 0.21919492520942532
000770 3a b9 e3 31 07 68 a7 3f 02 f9 1e b8 29 42 ca bf
       0.04571554645541416 -0.20514413347513744
000780 f3 cd 5d 2e 82 ff b1 bf 56 ee 17 20 8c 5a b1 3f
       -0.0703050006102826 0.06778789313823927
000790 ca 19 b2 59 45 a0 b1 bf 53 d5 72 0f 5b b3 67 3f
       -0.06885178985439847 0.0028931406519300622
0007a0 4b ec 21 71 7b 28 c0 bf 74 0c 11 97 3b 92 c2 3f
       -0.12623541854904582 0.14508767010019918
0007b0 ce 0c 01 73 f7 22 d0 3f c0 b0 41 a7 a1 7f e5 3f
       0.2521341918074541 0.6718300120096714
0007c0 c9 73 8f 88 95 d8 b2 bf 61 34 ff 94 3b 73 c7 bf
       -0.07361731132500816 -0.1832041242145435
0007d0 ee 60 3b 40 33 5d e5 3f 22 56 a2 18 f8 14 df 3f
       0.6676269773988943 0.48565485387493557
0007e0 7e 6f fd 38 2c 11 cb 3f 02 c8 31 0e 6a 10 ba bf
       0.21146157057489384 -0.10181296202225101
0007f0 1c fe 26 88 a0 2f ab bf 8a 02 6c aa 55 77 bf 3f
       -0.05309774076476634 0.12291465197268728

linear.bias f8 [10]
000000 9d 0d 6b 40 a4 7d c7 bf 98 aa d8 4c 8f 8c b2 bf
       -0.1835217775861623 -0.07245727182513872
000010 c4 25 df 2f 2d ff b5 3f 07 0a ca 7a 38 1b 94 bf
       0.08592493456594413 -0.01963508843847175
000020 89 7f 36 6e 5e 09 a3 3f 83 42 10 ab df 88 b6 bf
       0.037180853799554 -0.08802602697711319
000030 b4 f3 42 38 8e d8 8d bf 2f 1c f0 1a 70 ab aa bf
       -0.014573203174558326 -0.05208921746093897
000040 34 84 4e 3c de 10 64 bf 87 54 6f 7f 7c a3 b4 3f
       -0.002449449590543407 0.0806196032638856
